…
2025-09-22 04:52:01,103 INFO    MainThread:4053182 [wandb_init.py:init():831] calling init triggers
2025-09-22 04:52:01,105 INFO    MainThread:4053182 [wandb_init.py:init():836] wandb.init called with sweep_config: {}
config: {'config': 'configs/example_jsrt_8c.json', 'run_uuid': None, 'goal': 'test', 'device': 'cuda', 'device_id': '0', 'device_ids': '0', 'dataset': 'JSRT-8C-ClaSSeg', 'dataset_path': '/home/lpala/fedgfe/dataset', 'dataset_image_size': 224, 'dataset_transform': True, 'seed': 42, 'num_classes': 2, 'num_classes_per_client': 2, 'model': ViTModel(
  (embeddings): ViTEmbeddings(
    (patch_embeddings): ViTPatchEmbeddings(
      (projection): Conv2d(3, 768, kernel_size=(16, 16), stride=(16, 16))
    )
    (dropout): Dropout(p=0.0, inplace=False)
  )
  (encoder): ViTEncoder(
    (layer): ModuleList(
      (0-11): 12 x ViTLayer(
        (attention): ViTSdpaAttention(
          (attention): ViTSdpaSelfAttention(
            (query): Linear(in_features=768, out_features=768, bias=True)
            (key): Linear(in_features=768, out_features=768, bias=True)
            (value): Linear(in_features=768, out_features=768, bias=True)
            (dropout): Dropout(p=0.0, inplace=False)
          )
          (output): ViTSelfOutput(
            (dense): Linear(in_features=768, out_features=768, bias=True)
            (dropout): Dropout(p=0.0, inplace=False)
          )
        )
        (intermediate): ViTIntermediate(
          (dense): Linear(in_features=768, out_features=3072, bias=True)
          (intermediate_act_fn): GELUActivation()
        )
        (output): ViTOutput(
          (dense): Linear(in_features=3072, out_features=768, bias=True)
          (dropout): Dropout(p=0.0, inplace=False)
        )
        (layernorm_before): LayerNorm((768,), eps=1e-12, elementwise_affine=True)
        (layernorm_after): LayerNorm((768,), eps=1e-12, elementwise_affine=True)
      )
    )
  )
  (layernorm): LayerNorm((768,), eps=1e-12, elementwise_affine=True)
), 'model_pretrain': False, 'model_optimizer': 'SGD', 'model_optimizer_weight_decay': 0.001, 'model_optimizer_momentum': 0.9, 'loss_weighted': False, 'batch_size': 32, 'local_learning_rate': 0.01, 'learning_rate_schedule': True, 'learning_rate_schedule_gamma': 0.99, 'global_rounds': 50, 'local_epochs': 5, 'algorithm': 'FedGFE', 'join_ratio': 1.0, 'random
…
