…
    value: test
hidden_dim:
    value: 512
itk:
    value: 4000
join_ratio:
    value: 1
kl_weight:
    value: 0
lamda:
    value: 1
layer_idx:
    value: 2
learning_rate_schedule:
    value: true
learning_rate_schedule_gamma:
    value: 0.99
limit_samples_number:
    value: 0
local_epochs:
    value: 5
local_learning_rate:
    value: 0.01
localize_feature_extractor:
    value: false
loss_weighted:
    value: false
mentee_learning_rate:
    value: 0.005
model:
    value: |-
        ViTModel(
          (embeddings): ViTEmbeddings(
            (patch_embeddings): ViTPatchEmbeddings(
              (projection): Conv2d(3, 768, kernel_size=(16, 16), stride=(16, 16))
            )
            (dropout): Dropout(p=0.0, inplace=False)
          )
          (encoder): ViTEncoder(
            (layer): ModuleList(
              (0-11): 12 x ViTLayer(
                (attention): ViTSdpaAttention(
                  (attention): ViTSdpaSelfAttention(
                    (query): Linear(in_features=768, out_features=768, bias=True)
                    (key): Linear(in_features=768, out_features=768, bias=True)
                    (value): Linear(in_features=768, out_features=768, bias=True)
                    (dropout): Dropout(p=0.0, inplace=False)
                  )
                  (output): ViTSelfOutput(
                    (dense): Linear(in_features=768, out_features=768, bias=True)
                    (dropout): Dropout(p=0.0, inplace=False)
                  )
                )
                (intermediate): ViTIntermediate(
                  (dense): Linear(in_features=768, out_features=3072, bias=True)
                  (intermediate_act_fn): GELUActivation()
                )
                (output): ViTOutput(
                  (dense): Linear(in_features=3072, out_features=768, bias=True)
                  (dropout): Dropout(p=0.0, inplace=False)
                )
                (layernorm_before): LayerNorm((768,), eps=1e-12, elementwise_affine=True)
                (layernorm_after): LayerNorm((768,), eps=1e-12, elementwise_affine=True)
              )
            )
          )
          (layernorm): LayerNorm((768,), eps=1e-12, elementwise_affine=True)
        )
model_aggregation:
    value: none
model_aggregation_random:
    value: false
model_aggregation_weighted:
    value: false
model_backbone_checkpoint:
    value: backbone.pt
model_backbone_load_checkpoint:
    value: false
model_backbone_save_checkpoint:
    value: false
model_optimizer:
    value: SGD
model_optimizer_momentum:
    value: 0.9
model_optimizer_weight_decay:
…
